Projects/Projects/LLMs/Coursera/Week3/models/pytorch_model.bin (torch, 4159 bytes, 1 tensors)

v_head.summary.weight f4 [1, 768]
0	0xbc422492	-0.011849539
1	0xb9c1cfb6	-0.00036966585
2	0xbab7cc71	-0.001402272
3	0x3c13e668	0.009027101
4	0xbcfee23c	-0.031113736
5	0x3cb7b019	0.022422837
6	0xbd14acdf	-0.036297675
7	0x3c94023d	0.018067474
8	0x3c64eb45	0.013972108
9	0x3cd432b9	0.025903093
10	0x3c4e14e5	0.012578224
11	0x3ce0f189	0.027458923
12	0x3cbc46c1	0.022982957
13	0x3cf4a76f	0.029864995
14	0x3c99a51f	0.018755494
15	0xbbeaf6c5	-0.0071705305
16	0xbd070666	-0.032965086
17	0x3d12aa59	0.035806987
18	0x3d00cc06	0.031444572
19	0xbcf18a5d	-0.029484922
20	0x3cb2d934	0.021832086
21	0x3c7bd700	0.015371084
22	0xbd0df622	-0.03465856
23	0x3cda4cef	0.026648013
24	0x3cec190a	0.028820533
25	0xbd00bc01	-0.031429294
26	0x3d0ff44f	0.0351451
27	0xbcce92b8	-0.025216445
28	0x3c7b7da6	0.015349781
29	0x3b641832	0.003480446
30	0xbc091c8f	-0.008368625
31	0xbcf94e21	-0.030432763
32	0xbd131780	-0.035911083
33	0x3d02283c	0.03177665
34	0x3c740608	0.014894016
35	0x3beb8595	0.007187555
36	0x3c7e8588	0.015534766
37	0xbcc9df82	-0.02464271
38	0xbcfd5513	-0.030924356
39	0x3c86ea56	0.016469162
40	0xb8e2f78e	-0.000108226304
41	0x3ceb7319	0.028741406
42	0xbd06cc2b	-0.032909553
43	0x3cbe2043	0.023208743
44	0xbcb614f2	-0.022226784
45	0x3ca6cd36	0.020361524
46	0x3d0a034f	0.03369456
47	0x3ce255bd	0.027628774
48	0xba2129da	-0.0006147899
49	0x3cb1c764	0.021701522
50	0xbc98d5df	-0.01865667
51	0xbb854cb2	-0.0040679807
52	0xbcac54c9	-0.021036522
53	0xbd041aeb	-0.032252233
54	0x3be93650	0.0071170703
55	0x3cdc311f	0.026878892
56	0xbc72be31	-0.014815853
57	0x3ce4d90e	0.027935531
58	0xbcbaebc9	-0.02281751
59	0xbce6b324	-0.028161593
60	0x3ce606c3	0.028079396
61	0xbbb6e0c0	-0.0055809915
62	0x3c753d28	0.014968194
63	0xbc161f62	-0.009162756
64	0x3c0cc63b	0.008592184
65	0x3c078e40	0.008273661
66	0x3cfd85f9	0.030947672
67	0xbbc0c77b	-0.005883155
68	0x3be12cfc	0.0068718176
69	0xbc7df337	-0.0154998815
70	0x3cae4934	0.02127514
71	0x3b440de4	0.0029915506
72	0xbbfcff8f	-0.0077208946
73	0x3c8d8fd6	0.0172805
74	0x3c76e353	0.015068847
75	0xbb7c7a5e	-0.0038525085
76	0xbc6de5d6	-0.014520129
77	0xbcb34dc2	-0.021887664
78	0x3b0e2494	0.0021689283
79	0x3d131994	0.035913065
80	0xbcfc0332	-0.030763242
81	0x3b990f6a	0.004671027
82	0x3c975759	0.018474268
83	0xbc89ae47	-0.016806735
84	0x3c0de9c3	0.00866169
85	0x3c89e830	0.016834348
86	0x3cf4b58a	0.02987172
87	0x3c0e202a	0.008674661
88	0x3a5f9530	0.00085290056
89	0x3d0060fc	0.03134249
90	0xbc8a93eb	-0.016916236
91	0x3ccdce81	0.025122883
92	0x3ccf895d	0.025334055
93	0x3b9967f8	0.0046815835
94	0x3cc9f28b	0.024651786
95	0x3c7cef54	0.01543792
96	0x3c98126a	0.018563468
97	0xbc278444	-0.010224406
98	0x3b3713f1	0.002793547
99	0xbc5c8ac8	-0.013460822
100	0xbccb4153	-0.024811422
101	0xbd0cdba2	-0.034389146
102	0x3c59533a	0.013264472
103	0xbcdaddab	-0.026717028
104	0xbcce6ff7	-0.025199873
105	0xbcb13afc	-0.021634571
106	0xbbfeb2c4	-0.0077727754
107	0x3c6002ba	0.013672525
108	0xbcf877fa	-0.030330647
109	0x3cb10b4f	0.021611838
110	0xbad8cf6d	-0.001654131
111	0x3c9d43cf	0.019197373
112	0x3c958cd0	0.018255621
113	0x3bf2a998	0.007405471
114	0x3bd23c87	0.006415907
115	0xbb3de358	-0.0028974619
116	0xbcd99bbd	-0.02656352
117	0xbbbc69ff	-0.0057499404
118	0x3accd575	0.001562758
119	0x3c744e1c	0.014911201
120	0x3c1f2140	0.009712517
121	0xbcff2545	-0.031145701
122	0x3d111f92	0.0354305
123	0xbc2dd909	-0.010610827
124	0x3cf7ee94	0.03026513
125	0xbcb1f3cb	-0.021722695
126	0x3ce5c758	0.028049156
127	0x3c207a23	0.009794745
128	0x3cfdcf00	0.030982494
129	0x3cc152e1	0.02359909
130	0xbaf3db53	-0.0018604792
131	0xbab71848	-0.0013969028
132	0x3cb83c08	0.022489563
133	0x3cd754ac	0.026285492
134	0x3b3c074f	0.002869088
135	0xbc8595c5	-0.016306767
136	0x3c3a1f81	0.01136005
137	0x3bb20201	0.005432368
138	0x3cf4a165	0.029862115
139	0xbbeccc21	-0.0072264825
140	0xbcde5a8c	-0.027142785
141	0x3cb978d5	0.022640625
142	0x3d0eb97b	0.034844857
143	0xbced1835	-0.028942207
144	0xbac2b1a5	-0.0014853968
145	0x3ca6776a	0.020320613
146	0x3cea5334	0.028604127
147	0x3d008ebf	0.031386133
148	0x3cf17af2	0.02947757
149	0x3c9d4679	0.019198643
150	0xbc3629d0	-0.011118367
151	0xbc67201c	-0.014106777
152	0x3c017513	0.007901448
153	0xbc95aaf4	-0.018269993
154	0x3ce1be90	0.027556688
155	0x3cbc77f9	0.023006426
156	0x3ce5407a	0.027984846
157	0xbc9d3869	-0.019191938
158	0xbc7b10f7	-0.015323869
159	0x3cbe371f	0.023219643
160	0x3d03455d	0.03204857
161	0xbd00baae	-0.03142803
162	0xbc76ecf7	-0.015071145
163	0x3d13b1d6	0.03605827
164	0x3cd4b3f2	0.02596471
165	0xbcf6063c	-0.03003227
166	0xbb59dca4	-0.0033243084
167	0x3b74f1de	0.003737561
168	0xbd113d3f	-0.0354588
169	0x3d099ad9	0.03359494
170	0x3cebc9d8	0.02878277
171	0x3ac0c1d7	0.0014706206
172	0xbca9a086	-0.020706426
173	0xbbbffc32	-0.0058589214
174	0xbc144056	-0.009048542
175	0xbb28b28f	-0.0025741195
176	0xbcf7be5c	-0.030242138
177	0xbd11253b	-0.035435896
178	0xbcce6ceb	-0.02519842
179	0xb9969278	-0.00028719357
180	0x3c43710b	0.011928807
181	0xbc4da44e	-0.01255138
182	0x3b4e72dd	0.003150157
183	0xbd0bf2d0	-0.03416711
184	0xbcc3d703	-0.023906237
185	0xbccef9c9	-0.025265591
186	0xbd0d997e	-0.03457021
187	0xbd064eb4	-0.0327899
188	0xbcf3f4f6	-0.029779892
189	0xbc0ce8c8	-0.008600421
190	0xbc58cfdd	-0.013233152
191	0x3c92c0ac	0.017914139
192	0x3c9225ce	0.017840292
193	0xbb74f934	-0.0037379982
194	0x3d05d8c6	0.032677434
195	0xbd0a9ca4	-0.03384079
196	0x3cdf5682	0.02726293
197	0x3d0f0356	0.03491529
198	0xbce3b239	-0.027794944
199	0xbd02df07	-0.031950977
200	0xbcb1f0d9	-0.02172129
201	0x3ce6339b	0.02810078
202	0x3c9f9922	0.0194822
203	0x3cd9ccd5	0.02658693
204	0xbca2d987	-0.019879116
205	0x3c72381e	0.014783887
206	0xbb59ee3b	-0.0033253569
207	0x3ccd8ec5	0.025092492
208	0xbc99abf7	-0.018758757
209	0x3cecbf89	0.028899925
210	0xbcd50879	-0.026005017
211	0xbc11f242	-0.008907856
212	0xbb8aa458	-0.004231017
213	0xbc5baf1d	-0.0134084495
214	0x3c87b28d	0.016564632
215	0xbc779612	-0.015111463
216	0xbd057f3f	-0.032592054
217	0xbce0d606	-0.027445804
218	0x3bad4226	0.0052874265
219	0x3b1cb3bb	0.0023910839
220	0x3d10c8cb	0.03534774
221	0xbbfa43fb	-0.0076374984
222	0xbbf08f63	-0.007341312
223	0x3c44ed21	0.012019427
224	0x3ce03c14	0.027372397
225	0xbcaa7a20	-0.020810187
226	0xbc1a53d0	-0.0094193965
227	0x3c3ce91d	0.011530188
228	0x3c7bf73a	0.015378768
229	0x3ce0f95b	0.027462652
230	0x3c8c2e98	0.017112061
231	0xbcf20e20	-0.029547751
232	0xbca43050	-0.020042568
233	0x3cadda24	0.021222182
234	0xbbb91be2	-0.005649076
235	0xbcb31a6d	-0.021863187
236	0x3cb8ccc1	0.022558572
237	0xbafc88f1	-0.0019266886
238	0x3c4daf4a	0.012553999
239	0x3bb4e4af	0.0055204253
240	0x3d15a392	0.036532946
241	0xbcbb619e	-0.022873696
242	0xbcb2866c	-0.021792613
243	0xbc0f22a4	-0.008736286
244	0x3cc16d4f	0.023611693
245	0xbcf4b767	-0.02987261
246	0x3b3ead60	0.0029095039
247	0xbc6f92a1	-0.014622361
248	0x3ba2eb36	0.004971887
249	0xbc95f231	-0.018303962
250	0xbd0ec2f7	-0.0348539
251	0xbcfd7af4	-0.030942418
252	0x3ca96aa8	0.02068074
253	0xbd144705	-0.036200542
254	0x3a41e1b6	0.0007395999
255	0x3cd7d78b	0.026347896
